…
macc            : 21,088,612
rom (ro)        : 478,804 (467.58 KiB) 
ram (rw) wb+io  : 205,160 + 77,801 (200.35 KiB + 75.98 KiB)

------------------------------------------------------------------------------------------------------------------------
id  layer (type)         output shape      param #     connected to             macc           rom                
------------------------------------------------------------------------------------------------------------------------
0   input_0 (Input)      (160, 160, 3)                                                                            
    conv2d_0 (Conv2D)    (80, 80, 8)       224         input_0                  1,382,408      248 (i)            
------------------------------------------------------------------------------------------------------------------------
1   conv2d_1 (Conv2D)    (80, 80, 8)       80          conv2d_0                 460,808        104 (i)            
------------------------------------------------------------------------------------------------------------------------
2   conv2d_2 (Conv2D)    (80, 80, 16)      144         conv2d_1                 819,216        192 (i)            
------------------------------------------------------------------------------------------------------------------------
3   conv2d_3 (Conv2D)    (40, 40, 16)      160         conv2d_2                 230,416        208 (i)            
------------------------------------------------------------------------------------------------------------------------
4   conv2d_4 (Conv2D)    (40, 40, 32)      544         conv2d_3                 819,232        640 (i)            
------------------------------------------------------------------------------------------------------------------------
5   conv2d_5 (Conv2D)    (40, 40, 32)      320         conv2d_4                 460,832        416 (i)            
------------------------------------------------------------------------------------------------------------------------
6   conv2d_6 (Conv2D)    (40, 40, 32)      1,056       conv2d_5                 1,638,432      1,152 (i)          
------------------------------------------------------------------------------------------------------------------------
7   conv2d_7 (Conv2D)    (20, 20, 32)      320         conv2d_6                 115,232        416 (i)            
------------------------------------------------------------------------------------------------------------------------
8   conv2d_8 (Conv2D)    (20, 20, 64)      2,112       conv2d_7                 819,264        2,304 (i)          
------------------------------------------------------------------------------------------------------------------------
9   conv2d_9 (Conv2D)    (20, 20, 64)      640         conv2d_8                 230,464        832 (i)            
------------------------------------------------------------------------------------------------------------------------
10  conv2d_10 (Conv2D)   (20, 20, 64)      4,160       conv2d_9                 1,638,464      4,352 (i)          
------------------------------------------------------------------------------------------------------------------------
11  conv2d_11 (Conv2D)   (10, 10, 64)      640         conv2d_10                57,664         832 (i)            
------------------------------------------------------------------------------------------------------------------------
12  conv2d_12 (Conv2D)   (10, 10, 128)     8,320       conv2d_11                819,328        8,704 (i)          
------------------------------------------------------------------------------------------------------------------------
13  conv2d_13 (Conv2D)   (10, 10, 128)     1,280       conv2d_12                115,328        1,664 (i)          
------------------------------------------------------------------------------------------------------------------------
14  conv2d_14 (Conv2D)   (10, 10, 128)     16,512      conv2d_13                1,638,528      16,896 (i)         
------------------------------------------------------------------------------------------------------------------------
15  conv2d_15 (Conv2D)   (10, 10, 128)     1,280       conv2d_14                115,328        1,664 (i)          
------------------------------------------------------------------------------------------------------------------------
16  conv2d_16 (Conv2D)   (10, 10, 128)     16,512      conv2d_15                1,638,528      16,896 (i)         
------------------------------------------------------------------------------------------------------------------------
17  conv2d_17 (Conv2D)   (10, 10, 128)     1,280       conv2d_16                115,328        1,664 (i)          
------------------------------------------------------------------------------------------------------------------------
18  conv2d_18 (Conv2D)   (10, 10, 128)     16,512      conv2d_17                1,638,528      16,896 (i)         
------------------------------------------------------------------------------------------------------------------------
19  conv2d_19 (Conv2D)   (10, 10, 128)     1,280       conv2d_18                115,328        1,664 (i)          
------------------------------------------------------------------------------------------------------------------------
20  conv2d_20 (Conv2D)   (10, 10, 128)     16,512      conv2d_19                1,638,528      16,896 (i)         
------------------------------------------------------------------------------------------------------------------------
21  conv2d_21 (Conv2D)   (10, 10, 128)     1,280       conv2d_20                115,328        1,664 (i)          
------------------------------------------------------------------------------------------------------------------------
22  conv2d_22 (Conv2D)   (10, 10, 128)     16,512      conv2d_21                1,638,528      16,896 (i)         
------------------------------------------------------------------------------------------------------------------------
23  conv2d_23 (Conv2D)   (5, 5, 128)       1,280       conv2d_22                28,928         1,664 (i)          
------------------------------------------------------------------------------------------------------------------------
24  conv2d_24 (Conv2D)   (5, 5, 256)       33,024      conv2d_23                819,456        33,792 (i)         
------------------------------------------------------------------------------------------------------------------------
25  conv2d_25 (Conv2D)   (5, 5, 256)       2,560       conv2d_24                57,856         3,328 (i)          
------------------------------------------------------------------------------------------------------------------------
26  conv2d_26 (Conv2D)   (5, 5, 256)       65,792      conv2d_25                1,645,056      66,560 (i)         
------------------------------------------------------------------------------------------------------------------------
27  pool_27 (Pool)       (1, 1, 256)                   conv2d_26                                                  
------------------------------------------------------------------------------------------------------------------------
28  conv2d_28 (Conv2D)   (1, 1, 1001)      257,257     pool_27                  257,257        260,260 (i)        
------------------------------------------------------------------------------------------------------------------------
29  reshape_29 (Reshape) (1001,)                       conv2d_28                2,002                             
------------------------------------------------------------------------------------------------------------------------
…
