…
rom (ro)        : 1,346,052 (1.28 MiB) 
ram (rw) wb+io  : 590,432 + 111,593 (576.59 KiB + 108.98 KiB)

------------------------------------------------------------------------------------------------------------------------
id  layer (type)         output shape      param #     connected to             macc           rom                
------------------------------------------------------------------------------------------------------------------------
0   input_0 (Input)      (192, 192, 3)                                                                            
    conv2d_0 (Conv2D)    (96, 96, 16)      448         input_0                  3,981,328      496 (i)            
------------------------------------------------------------------------------------------------------------------------
1   conv2d_1 (Conv2D)    (96, 96, 16)      160         conv2d_0                 1,327,120      208 (i)            
------------------------------------------------------------------------------------------------------------------------
2   conv2d_2 (Conv2D)    (96, 96, 32)      544         conv2d_1                 4,718,624      640 (i)            
------------------------------------------------------------------------------------------------------------------------
3   conv2d_3 (Conv2D)    (48, 48, 32)      320         conv2d_2                 663,584        416 (i)            
------------------------------------------------------------------------------------------------------------------------
4   conv2d_4 (Conv2D)    (48, 48, 64)      2,112       conv2d_3                 4,718,656      2,304 (i)          
------------------------------------------------------------------------------------------------------------------------
5   conv2d_5 (Conv2D)    (48, 48, 64)      640         conv2d_4                 1,327,168      832 (i)            
------------------------------------------------------------------------------------------------------------------------
6   conv2d_6 (Conv2D)    (48, 48, 64)      4,160       conv2d_5                 9,437,248      4,352 (i)          
------------------------------------------------------------------------------------------------------------------------
7   conv2d_7 (Conv2D)    (24, 24, 64)      640         conv2d_6                 331,840        832 (i)            
------------------------------------------------------------------------------------------------------------------------
8   conv2d_8 (Conv2D)    (24, 24, 128)     8,320       conv2d_7                 4,718,720      8,704 (i)          
------------------------------------------------------------------------------------------------------------------------
9   conv2d_9 (Conv2D)    (24, 24, 128)     1,280       conv2d_8                 663,680        1,664 (i)          
------------------------------------------------------------------------------------------------------------------------
10  conv2d_10 (Conv2D)   (24, 24, 128)     16,512      conv2d_9                 9,437,312      16,896 (i)         
------------------------------------------------------------------------------------------------------------------------
11  conv2d_11 (Conv2D)   (12, 12, 128)     1,280       conv2d_10                166,016        1,664 (i)          
------------------------------------------------------------------------------------------------------------------------
12  conv2d_12 (Conv2D)   (12, 12, 256)     33,024      conv2d_11                4,718,848      33,792 (i)         
------------------------------------------------------------------------------------------------------------------------
13  conv2d_13 (Conv2D)   (12, 12, 256)     2,560       conv2d_12                332,032        3,328 (i)          
------------------------------------------------------------------------------------------------------------------------
14  conv2d_14 (Conv2D)   (12, 12, 256)     65,792      conv2d_13                9,437,440      66,560 (i)         
------------------------------------------------------------------------------------------------------------------------
15  conv2d_15 (Conv2D)   (12, 12, 256)     2,560       conv2d_14                332,032        3,328 (i)          
------------------------------------------------------------------------------------------------------------------------
16  conv2d_16 (Conv2D)   (12, 12, 256)     65,792      conv2d_15                9,437,440      66,560 (i)         
------------------------------------------------------------------------------------------------------------------------
17  conv2d_17 (Conv2D)   (12, 12, 256)     2,560       conv2d_16                332,032        3,328 (i)          
------------------------------------------------------------------------------------------------------------------------
18  conv2d_18 (Conv2D)   (12, 12, 256)     65,792      conv2d_17                9,437,440      66,560 (i)         
------------------------------------------------------------------------------------------------------------------------
19  conv2d_19 (Conv2D)   (12, 12, 256)     2,560       conv2d_18                332,032        3,328 (i)          
------------------------------------------------------------------------------------------------------------------------
20  conv2d_20 (Conv2D)   (12, 12, 256)     65,792      conv2d_19                9,437,440      66,560 (i)         
------------------------------------------------------------------------------------------------------------------------
21  conv2d_21 (Conv2D)   (12, 12, 256)     2,560       conv2d_20                332,032        3,328 (i)          
------------------------------------------------------------------------------------------------------------------------
22  conv2d_22 (Conv2D)   (12, 12, 256)     65,792      conv2d_21                9,437,440      66,560 (i)         
------------------------------------------------------------------------------------------------------------------------
23  conv2d_23 (Conv2D)   (6, 6, 256)       2,560       conv2d_22                83,200         3,328 (i)          
------------------------------------------------------------------------------------------------------------------------
24  conv2d_24 (Conv2D)   (6, 6, 512)       131,584     conv2d_23                4,719,104      133,120 (i)        
------------------------------------------------------------------------------------------------------------------------
25  conv2d_25 (Conv2D)   (6, 6, 512)       5,120       conv2d_24                166,400        6,656 (i)          
------------------------------------------------------------------------------------------------------------------------
26  conv2d_26 (Conv2D)   (6, 6, 512)       262,656     conv2d_25                9,456,128      264,192 (i)        
------------------------------------------------------------------------------------------------------------------------
27  pool_27 (Pool)       (1, 1, 512)                   conv2d_26                                                  
------------------------------------------------------------------------------------------------------------------------
28  conv2d_28 (Conv2D)   (1, 1, 1001)      513,513     pool_27                  513,513        516,516 (i)        
------------------------------------------------------------------------------------------------------------------------
29  reshape_29 (Reshape) (1001,)                       conv2d_28                2,002                             
------------------------------------------------------------------------------------------------------------------------
…
